…
    (embeddings): ModuleDict()
  )
  (prescalers): ModuleDict()
  (static_variable_selection): VariableSelectionNetwork(
    (single_variable_grns): ModuleDict()
    (prescalers): ModuleDict()
    (softmax): Softmax(dim=-1)
  )
  (encoder_variable_selection): VariableSelectionNetwork(
    (single_variable_grns): ModuleDict()
    (prescalers): ModuleDict()
    (softmax): Softmax(dim=-1)
  )
  (decoder_variable_selection): VariableSelectionNetwork(
    (single_variable_grns): ModuleDict()
    (prescalers): ModuleDict()
    (softmax): Softmax(dim=-1)
  )
  (static_context_variable_selection): GatedResidualNetwork(
    (fc1): Linear(in_features=16, out_features=16, bias=True)
    (elu): ELU(alpha=1.0)
    (fc2): Linear(in_features=16, out_features=16, bias=True)
    (gate_norm): GateAddNorm(
      (glu): GatedLinearUnit(
        (dropout): Dropout(p=0.1, inplace=False)
        (fc): Linear(in_features=16, out_features=32, bias=True)
      )
      (add_norm): AddNorm(
        (norm): LayerNorm((16,), eps=1e-05, elementwise_affine=True)
      )
    )
  )
  (static_context_initial_hidden_lstm): GatedResidualNetwork(
    (fc1): Linear(in_features=16, out_features=16, bias=True)
    (elu): ELU(alpha=1.0)
    (fc2): Linear(in_features=16, out_features=16, bias=True)
    (gate_norm): GateAddNorm(
      (glu): GatedLinearUnit(
        (dropout): Dropout(p=0.1, inplace=False)
        (fc): Linear(in_features=16, out_features=32, bias=True)
      )
      (add_norm): AddNorm(
        (norm): LayerNorm((16,), eps=1e-05, elementwise_affine=True)
      )
    )
  )
  (static_context_initial_cell_lstm): GatedResidualNetwork(
    (fc1): Linear(in_features=16, out_features=16, bias=True)
    (elu): ELU(alpha=1.0)
    (fc2): Linear(in_features=16, out_features=16, bias=True)
    (gate_norm): GateAddNorm(
      (glu): GatedLinearUnit(
        (dropout): Dropout(p=0.1, inplace=False)
        (fc): Linear(in_features=16, out_features=32, bias=True)
      )
      (add_norm): AddNorm(
        (norm): LayerNorm((16,), eps=1e-05, elementwise_affine=True)
      )
    )
  )
  (static_context_enrichment): GatedResidualNetwork(
    (fc1): Linear(in_features=16, out_features=16, bias=True)
    (elu): ELU(alpha=1.0)
    (fc2): Linear(in_features=16, out_features=16, bias=True)
    (gate_norm): GateAddNorm(
      (glu): GatedLinearUnit(
        (dropout): Dropout(p=0.1, inplace=False)
        (fc): Linear(in_features=16, out_features=32, bias=True)
      )
      (add_norm): AddNorm(
        (norm): LayerNorm((16,), eps=1e-05, elementwise_affine=True)
      )
    )
  )
  (lstm_encoder): LSTM(16, 16, batch_first=True)
  (lstm_decoder): LSTM(16, 16, batch_first=True)
  (post_lstm_gate_encoder): GatedLinearUnit(
    (dropout): Dropout(p=0.1, inplace=False)
    (fc): Linear(in_features=16, out_features=32, bias=True)
  )
  (post_lstm_gate_decoder): GatedLinearUnit(
    (dropout): Dropout(p=0.1, inplace=False)
    (fc): Linear(in_features=16, out_features=32, bias=True)
  )
  (post_lstm_add_norm_encoder): AddNorm(
    (norm): LayerNorm((16,), eps=1e-05, elementwise_affine=True)
  )
  (post_lstm_add_norm_decoder): AddNorm(
    (norm): LayerNorm((16,), eps=1e-05, elementwise_affine=True)
  )
  (static_enrichment): GatedResidualNetwork(
    (fc1): Linear(in_features=16, out_features=16, bias=True)
    (elu): ELU(alpha=1.0)
    (context): Linear(in_features=16, out_features=16, bias=False)
    (fc2): Linear(in_features=16, out_features=16, bias=True)
    (gate_norm): GateAddNorm(
      (glu): GatedLinearUnit(
        (dropout): Dropout(p=0.1, inplace=False)
        (fc): Linear(in_features=16, out_features=32, bias=True)
      )
      (add_norm): AddNorm(
        (norm): LayerNorm((16,), eps=1e-05, elementwise_affine=True)
      )
    )
  )
  (multihead_attn): InterpretableMultiHeadAttention(
    (dropout): Dropout(p=0.1, inplace=False)
    (v_layer): Linear(in_features=16, out_features=4, bias=True)
    (q_layers): ModuleList(
      (0-3): 4 x Linear(in_features=16, out_features=4, bias=True)
    )
    (k_layers): ModuleList(
      (0-3): 4 x Linear(in_features=16, out_features=4, bias=True)
    )
    (attention): ScaledDotProductAttention(
      (softmax): Softmax(dim=2)
    )
    (w_h): Linear(in_features=4, out_features=16, bias=False)
  )
  (post_attn_gate_norm): GateAddNorm(
    (glu): GatedLinearUnit(
      (dropout): Dropout(p=0.1, inplace=False)
      (fc): Linear(in_features=16, out_features=32, bias=True)
    )
    (add_norm): AddNorm(
      (norm): LayerNorm((16,), eps=1e-05, elementwise_affine=True)
    )
  )
  (pos_wise_ff): GatedResidualNetwork(
    (fc1): Linear(in_features=16, out_features=16, bias=True)
    (elu): ELU(alpha=1.0)
    (fc2): Linear(in_features=16, out_features=16, bias=True)
    (gate_norm): GateAddNorm(
      (glu): GatedLinearUnit(
        (dropout): Dropout(p=0.1, inplace=False)
        (fc): Linear(in_features=16, out_features=32, bias=True)
      )
      (add_norm): AddNorm(
        (norm): LayerNorm((16,), eps=1e-05, elementwise_affine=True)
      )
    )
  )
  (pre_output_gate_norm): GateAddNorm(
    (glu): GatedLinearUnit(
      (fc): Linear(in_features=16, out_features=32, bias=True)
    )
    (add_norm): AddNorm(
      (norm): LayerNorm((16,), eps=1e-05, elementwise_affine=True)
    )
  )
  (output_layer): Linear(in_features=16, out_features=7, bias=True)
)
